…
predicted RUL against true RUL, for the FDIA injected data
set in industries. Configuration of CNN and GRU is
described in table 1 and table 2 respectively.
The work experiment has been carried out on both the
model and found fine approximated predicted RUL with
True RUL for both the model. The comparison of both the
model has been carried out on the given parameter shown in
table 3.
The graphs of both the techniques (CNN & GRU), which
are prepared on two parameters of engine id on X label and
RUL cycles on Y label, are shown in figure 3 & 4. 

Table 1. CNN Configuration
Layer (type) Output Shape Param #
batch_normalization_2 (None, 100, 25) 100
conv1d_8 (Conv1D (None, 98, 64) 4864
conv1d_9 (Conv1D) (None, 96, 64) 12352
conv1d_10 (Conv1D) (None, 94, 64) 12352
conv1d_11 (Conv1D) (None, 92, 64) 12352
flatten_2 (Flatten) (None, 5888) 0
dense_7 (Dense) (None, 40) 235560
activation_7 (Activation) (None, 40) 0
dense_8 (Dense) (None, 30) 1230
activation_8 (Activation) (None, 30) 0
dense_9 (Dense) (None, 1) 31
After configuration of CNN, following parameters (trainable
and non trainable) has been found and the value are given
below:
Total Params: 278,841
Trainable Params: 278,791
Non-trainable Params: 50 

Table 2. GRU Configuration
Layer (type) Output Shape Param
#
gru_4 (GRU) (None, 80, 100) 38100
dropout_4 (Dropout) (None, 80, 100) 0
gru_5 (GRU) (None, 80, 100) 60600
dropout_5 (Dropout) (None, 80, 100) 0
gru_6 (GRU) (None, 80, 100) 60600
dropout_6 (Dropout) (None, 80, 100) 0
gru_7 (GRU) (None, 100) 60600
dropout_7 (Dropout) (None, 100) 0
dense_13 (Dense) (None, 1) 101
activation_13 (Activation) (None, 1) 0
After configuration of GRU, following parameters (trainable
and non trainable) has been found and the value are given
below:
Total Params: 220,001
Trainable Params: 220,001
Non-trainable Params: 0 


It is observed that graphs (figure 3 & 4) of both the
techniques are somehow been seen similar. But, differences
among them can be analyzed against some statistical
parameters like root mean square error (RSME), loss, Rsquared (R2
…
